weight/model_int4_0.97229.safetensors (safetensors, 491040 bytes, 7 tensors)

fc1.weight f4 [30, 4056]
00000000: 5a8d 273c be0a 3d3c d1e6 7abc 3d5a d03b
00000010: 03f6 8c3c 07ec ac3a 038f 503c 4f3c daba
00000020: 5bf6 b93a 0713 0a3c 6f52 9e3c 2369 193c
00000030: 9d5d 053c f9ab f3bc 5958 7f3b 1539 833c
00000040: 8261 b3bb 7c07 acbc 2753 babc 1ffd 0ebd
00000050: 485c b3bc a538 87bb 1fa0 aabc fbf6 33bc
00000060: 9e36 713b 4242 9cbb b69c d93b 8102 2bbc
00000070: 495d 563a ede3 673c 63c5 963c 0eab 2cbc
00000080: a229 e03c cdf7 3a3d 2535 483d 97f6 7d3d
00000090: a76e 303d 8776 d73c 8bfa 2f3d 9903 f43c
000000a0: 7de6 b73c 88e2 e03c 796d b13c 2bad 563c
000000b0: 5fe5 0c3c fd54 45bb 0eeb a7bc 87ef 0bbd
000000c0: 03b3 40bc d1dc 93bb 9003 af3b 0aa6 ed3b
000000d0: 9f96 7dbc c7e3 89bc e1a9 a4bc 93dc 893c
000000e0: 149f 163d 8d0b ac3c 9427 133d 3954 843d
000000f0: 58cc 363d 2d84 663d 1000 5e3d 0a5b 403d
00000100: 0012 1d3d 5f2f 653c 6193 193c f27e e23c
00000110: d03a 193d 1fc8 9c3c eb13 883c 0cd5 c9bc
00000120: fe47 fabc f88c cabc 1eb9 89bc ff99 26bc
00000130: 810b a6bc daae 7dbb 4515 82bc 015a 083b
00000140: 82b0 503c 0716 e13c 0bc6 df3c 7126 223d
00000150: 6c11 453d 6984 023d efa9 413d dac3 5e3d
00000160: e9ea f83c c839 1f3d d4f9 5d3b cc3d 5b3b
00000170: 458a 8b3c 44e5 883a 2642 6e3a bfb3 983b
00000180: 862e 8bbc 2ee5 cdbc 9ef2 b5bb 697b 31bd
00000190: 0c41 2ebd eee4 14bc acdb b3bc f3df 3ebc
000001a0: 1c32 9fba 0f30 b13c ede7 753c 663c 1b3d
000001b0: 7537 203d a6bd eb3c 391f 1c3d cd66 543d
000001c0: 1dd6 193d 94fd db3c 6d80 423d c270 d63c
000001d0: 3c2f 143d 8258 c43c 2e47 3e3c 4401 b13c
000001e0: cde2 af3b 126a fe39 248d 3fbc 70a2 82bc
000001f0: 70ab 68bc 8378 1dbd 3b6e c3bc 1be8 1bbd
00000200: a920 92bc 3a45 94bc 51c7 bf3c 6328 1d3d
00000210: ac88 9f3c 6dc0 233d 90ff 313d 284c 263d
00000220: d5bd 733c 6abd 053d 0bf1 403d c51f 503d
00000230: 1e90 433d b2cd 313d 3d8e a73c 185e 033d
00000240: 54bf 013c 6aaa 843c c428 663b d795 e33b
00000250: 2834 0bbc 52e4 25bb 6862 113c d551 dcbc
00000260: 308e 2ebd f323 ecbc 177c a3bb eb7a 9abc
00000270: fb79 893c ad7a 3c3d 5a9a 893c 8f5f 263c
00000280: 27b4 d1bb 9b13 4d3b e543 d93c 34ac 673c
00000290: ffad ea3c 3e41 113d 9a87 c33c d2cd 413d
000002a0: 91f5 0b3d 314d 3d3d 8326 6b3c 2adf 023d
000002b0: 9bd8 113d d246 bc3c 6ac4 3d3c 9c8a 923c
000002c0: 176a b93a b1b6 e4bb 76bc 12bd 2c99 f1bc
000002d0: 7860 debc ce78 1b3b 53a7 a53c 00aa 383c
000002e0: 7b01 733b 02f1 ffbb 99ab b7bc ea28 8cbc
000002f0: a2fd ee3b 27af 4b3b 5f1a 253c af92 ca3c
00000300: 104f 0a3c 9bd1 883c ab26 bd3c 6202 3d3d
00000310: 742d 8e3c 1095 963c 18a4 1d3d e550 223d
00000320: 4f96 bc3c 4bc5 b63c a20c fc3c aaa1 863c
00000330: e795 e1bc 8b6d 0ebd 8942 babc 75dd 1cbb
00000340: 3565 753c e89b c23c 2104 023b 4324 71bc
00000350: 370b 44bd 3242 87bc 5642 febc d27b 22bc
00000360: 111e b2bc 6c5c a1bc 1156 37bd 38dc b6bc
00000370: 0d6b ee39 fc8a 713b c8b0 a13c 163c 1e3c
00000380: 2c42 583c a7e9 da3c 5831 563c d1bb 5e3c
00000390: 9eea d73c f12e b03c d11e 83bd 73d4 1fbc
000003a0: 2df0 053b 891e c1bc 87c5 883c 6df3 823b
000003b0: 27b6 04bd 7ebc f4bc 0a8c 83bd 4337 2cbd
000003c0: 9e64 eabc eba0 dbbc d604 3bbd 6336 67bd
000003d0: b955 55bd 3ede 1dbd fc02 0dbd 2baf 2dbd
000003e0: cc93 eebc 1945 5c3b a68d 77bc b050 2dbc
000003f0: 1534 2f3c c27b eabb 3f33 413c a38c ebbc
0.010226572 0.011538206 -0.01531382 0.0063584135 0.017207151 0.00131929 0.012729409 -0.0016650053
0.00141878 0.008427388 0.019326417 0.009363445 0.008139995 -0.029745089 0.0038962571 0.01601843
-0.0054742703 -0.020999663 -0.022744728 -0.034909364 -0.021894589 -0.0041266256 -0.020828305 -0.010984178
0.0036806236 -0.0047686407 0.006640996 -0.010437609 0.0008177353 0.014153463 0.018404668 -0.0105388295
0.027363602 0.045646477 0.048878808 0.062002745 0.043074276 0.026301635 0.042963546 0.029786872
0.022448773 0.027451769 0.021658646 0.01310281 0.008599608 -0.0030110471 -0.020497825 -0.034163978
-0.01176143 -0.0045124074 0.005341001 0.0072524594 -0.015477805 -0.016832246 -0.020100536 0.01682881
0.036772802 0.021001602 0.035926417 0.06461377 0.04462847 0.056278396 0.05419928 0.04696182
0.038347244 0.013988345 0.009373517 0.027648423 0.037409604 0.019138394 0.01661106 -0.024637721
-0.030551907 -0.024725422 -0.016811904 -0.0101685515 -0.020269157 -0.0038708956 -0.015879283 0.00208056
0.012737395 0.027476324 0.027316114 0.03958744 0.048112318 0.031864557 0.047281202 0.054385997
0.030385451 0.038873464 0.0033870833 0.0033453582 0.017033705 0.0010444303 0.00090888364 0.0046600993
-0.016989958 -0.025133695 -0.005552604 -0.043330584 -0.042542502 -0.009087784 -0.021955334 -0.011650073
-0.0012145671 0.021629361 0.015008909 0.037899397 0.039115388 0.028776955 0.038115714 0.05185585
0.03755771 0.026854314 0.047485758 0.026176814 0.03617786 0.023967985 0.01161365 0.021607049
0.005367613 0.00048525684 -0.011691365 -0.015946597 -0.01420103 -0.038445007 -0.023856273 -0.03806315
-0.01783784 -0.018099416 0.023410471 0.038368594 0.01947435 0.039978433 0.043456614 0.040599972
0.014876802 0.032651342 0.047104876 0.050811548 0.047744863 0.043409057 0.020453567 0.032072157
0.007919151 0.016194541 0.0035119513 0.0069453525 -0.008496322 -0.0025313091 0.00887356 -0.02689449
-0.04261607 -0.028825736 -0.004989158 -0.01885744 0.016781798 0.04601543 0.016797233 0.010154619
-0.0063996497 0.0031292203 0.026521632 0.0141401775 0.02864742 0.03546261 0.02386837 0.047315426
0.034169737 0.046216194 0.014352444 0.031951107 0.03560696 0.022982989 0.011582473 0.01788836
0.0014145997 -0.0069797863 -0.03582426 -0.029491983 -0.02714561 0.0023723128 0.020221388 0.011271
0.003707974 -0.007810713 -0.022420691 -0.017109353 0.007293419 0.003107974 0.010077088 0.024728147
0.0084417015 0.01670151 0.023089727 0.04614485 0.017355658 0.018381625 0.03848657 0.03962793
0.023020891 0.022310873 0.030767743 0.01643451 -0.0275373 -0.034772437 -0.022736805 -0.002393571
0.014977743 0.023755983 0.0019838887 -0.014718118 -0.047862258 -0.016511057 -0.03103749 -0.009917216
-0.021742852 -0.01969739 -0.044759814 -0.022321805 0.00045474657 0.0036856523 0.019737616 0.00965788
0.01319937 0.026722742 0.013073288 0.013594584 0.026356991 0.021506758 -0.06402362 -0.009755242
0.0020437345 -0.02357413 0.01669575 0.003996304 -0.032400277 -0.029875036 -0.06423195 -0.04204489
-0.028612431 -0.02681013 -0.04565891 -0.05644835 -0.052083705 -0.038542025 -0.034426674 -0.04240338
-0.02912321 0.0033610521 -0.015109455 -0.010578319 0.01069357 -0.0071558664 0.011792003 -0.028753584

fc2.weight f4 [10, 30]
00000000: 0b5f a5bd dfe2 443e 08d4 36be 3712 31be
00000010: 07c2 bebd cc66 fabd 475f 29bc 44da 373e
00000020: a8ff 36be 90a0 1c3e c7fe 4e3e f237 9ebd
00000030: 3303 92bc 664e 1c3e 490c 61be b5dc 333e
00000040: deb4 f6bd 466f cabd b18c 67be 0cd8 e7bd
00000050: b8e7 f5bd bfe4 2abe 677e a6bd 2f32 12bd
00000060: aee1 0ebe 8d6b 71bc a061 203d 6ad7 54be
00000070: 9982 01be ee3a 59bd 2973 52be b94d a4bd
00000080: 3eb6 943d 0c0e d5bd a927 313e 5cf5 72bd
00000090: f226 843d ca6d 75bd 05b9 53be 185e 4b3e
000000a0: ab9c 36bd 4394 173e edd9 53be 7931 63be
000000b0: fa5e 12be 4ae7 fabc 0358 62be 6af8 fbbd
000000c0: 3699 5b3e 8a21 573d 4476 093e 08ca 073e
000000d0: 37a5 953d acd0 253d 8a04 113d 8e67 1f3e
000000e0: 6c4b 9ebc ad9f 8b3d b8a1 093e d24c 8bbd
000000f0: 4191 c33d 8dea 113e 2b70 12be ba10 62be
00000100: 3cbe 4f3e 6259 cc3d 7e4f 493d b7f8 8cbd
00000110: fe04 04be b5e2 bf3a cba0 653d b2d8 843b
00000120: 5efc a63d f936 cabd 72fc 11be 9a13 5abe
00000130: 5cf1 b83d ec43 b1bd 90ed 2bbe 1265 d4ba
00000140: 9e03 3cbd cb19 a53d 12ed e7bd 22b7 7fbd
00000150: 55f7 18be e1ae 153c 3df4 04be 1e42 af3d
00000160: ef75 eabd 0f2c d7bd 3e63 923d 93eb 62be
00000170: 7fcd a4bd ea8a af3d bca9 55be 68e0 2dbe
00000180: fa3d b2bb 2bb5 fd3d 1bad 4a3c 7feb 74be
00000190: f6d6 833d cc8b 52bc 21bb 1b3e b71b 9f3c
000001a0: babe 5fbd 4a05 6fbd be12 fdbb 5dc1 d83d
000001b0: 9433 023e 9975 8bbb ef69 06be ea96 b13c
000001c0: d18c 7b3d 0905 2f3e 225f ed3d 3217 3fbd
000001d0: 4819 3dbe e07b 673d 2b1e 1fbe fa48 89bd
000001e0: d0d8 87be f991 a33c 0b09 77bc dec7 263e
000001f0: 9d80 9a3d 225c 173d ea34 4dbd 3dc4 c73d
00000200: 137b 663d 5e4e d73d ba3a 6ebe 44e3 f3bd
00000210: b55f ef3d 371b 63be 4473 063e c983 b93c
00000220: d23b 07be 8858 fbbc c185 0abc ca22 50be
00000230: e8b9 adbd 2618 ad3d 4a06 7bbc f3bd 4dbe
00000240: 780e 5cbe a9be cabc f736 46be 3fb1 44be
00000250: 3b32 4e3c 7533 3cbe 8a5b 85bd c3cd 173e
00000260: b30e 02be 121a e93d cce2 473e 5891 cd3d
00000270: 85bf 5fbe a54d 5bbe 270b 7abd d488 60be
00000280: 7fcd 39be 591a 16be 758e 56be 3c93 563e
00000290: 329c da3b 7ee6 133e 28a9 d2bd c418 1e3d
000002a0: 1f10 2cbe 9538 53be b126 aa3d 262b d4bd
000002b0: 5841 f0bd 3ba4 b73d 5b54 ae3d 090d 4e3e
000002c0: 487e 563e f9d5 06be 8fd0 953d 71af bd3d
000002d0: 9272 63be ee23 2abd 40d0 44be a006 fbbd
000002e0: 7972 78bd bbe1 0c3d b0a1 d3bd 89e3 863c
000002f0: ae9f 183e 8635 46bd 7b1e 583d b8be ffbd
00000300: b665 6a3d 865b 74bd f005 3cbe 315a 083e
00000310: a5ce 6ebe 2b0e 223d 3f63 b23d 5e75 be3d
00000320: 11a0 a9bd 4f40 e6bd 2459 833d dbbf 39be
00000330: 5904 5fbe 3a04 3cbe 334d 5c3e fcd7 17be
00000340: 5690 60bd 54f6 63be 7bff c83d 670c f0bd
00000350: 7051 0c3e 963f 53be b092 143e 6634 5fbe
00000360: 0935 753d 0fc2 413d f479 52be 69af 213e
00000370: c3e9 eebd ce00 383c ad31 18be 08ae 5abe
00000380: e893 2b3e b6a2 973d a543 4f3e f511 56bd
00000390: 0948 7ebd 55d1 86bd 1b90 13be 4b8b d8bd
000003a0: 8667 153e 39a9 853d 4a10 2d3e 6f44 62be
000003b0: 10cd bcbd d2a9 253e 2015 af3c e204 123e
000003c0: af13 18be 7f78 873d f90a 62be cf89 023e
000003d0: 5b5b 63be 7d16 2d3d c624 babd 2c70 c33d
000003e0: ec09 f83c 73a2 003e 9612 0ebe 0c3a ce3c
000003f0: bc05 d4bd 8e76 c23d 0ad5 b9bd ff5e 26be
-0.08074769 0.1922717 -0.17854321 -0.17292105 -0.093143515 -0.12226638 -0.010337657 0.17954355
-0.17870963 0.15295625 0.20214377 -0.077255145 -0.017823791 0.15264282 -0.21977343 0.17564662
-0.120462164 -0.09884505 -0.22612263 -0.113205045 -0.120070875 -0.16688822 -0.08129578 -0.03569239
-0.13953277 -0.014735115 0.039155602 -0.20785299 -0.12647475 -0.053034715 -0.20551743 -0.08022637
0.072613224 -0.1040307 0.17300285 -0.059316024 0.06452741 -0.059919156 -0.20676048 0.19860113
-0.044583004 0.14802651 -0.20688601 -0.22186841 -0.14294043 -0.030627865 -0.22103886 -0.123032406
0.21445164 0.05252222 0.13424021 0.13260663 0.07306903 0.040482208 0.03540472 0.15566847
-0.019323073 0.06817565 0.13440597 -0.06801762 0.09549189 0.1424963 -0.14300601 -0.22076693
0.20287412 0.09977986 0.049148075 -0.06883376 -0.1289253 0.0014639708 0.056061547 0.0040541524
0.08153604 -0.098737665 -0.14256456 -0.2129654 0.09030411 -0.08655533 -0.16789842 -0.0016204438
-0.045901887 0.0806156 -0.113245144 -0.06243051 -0.149381 0.009135933 -0.12983795 0.08557533
-0.11448275 -0.105064504 0.07147835 -0.22160177 -0.08047008 0.08571418 -0.2086553 -0.16980135
-0.005439517 0.12388071 0.012370373 -0.2391796 0.06437485 -0.012850713 0.15208103 0.019422395
-0.05462525 -0.058354653 -0.0077231815 0.10583756 0.12714988 -0.004255962 -0.13126348 0.021678407
0.06141359 0.17091765 0.11590411 -0.04665298 -0.18466675 0.05651462 -0.15538852 -0.06703372
-0.26532602 0.019967066 -0.01507784 0.16287181 0.07544062 0.0369531 -0.05009929 0.09754226
0.056269716 0.10512994 -0.2326459 -0.11908582 0.116881765 -0.2217835 0.13129908 0.022645848
-0.13206413 -0.030681863 -0.008454741 -0.20325771 -0.084827244 0.084518716 -0.015321324 -0.20091991
-0.21489894 -0.024749117 -0.19356905 -0.19208239 0.012585218 -0.18379004 -0.065116 0.14824586
-0.1270092 0.11381926 0.1952011 0.10037488 -0.21850403 -0.21416338 -0.061045792 -0.21927196
-0.18144797 -0.14658488 -0.2095278 0.20954603 0.006671452 0.14443395 -0.1028617 0.038597837
-0.16803025 -0.20627053 0.08308161 -0.103597924 -0.11731213 0.08966871 0.08512183 0.2012216
0.2094661 -0.13167562 0.0731517 0.092619784 -0.22211674 -0.04153817 -0.19220066 -0.12257123
-0.060656045 0.03439496 -0.10333574 0.01646592 0.14904663 -0.048390888 0.052763443 -0.124875486
0.057225905 -0.059657596 -0.1836164 0.13315655 -0.23321016 0.039564293 0.08710336 0.0929973
-0.08282483 -0.11242735 0.064134866 -0.18139593 -0.21779002 -0.18360987 0.21513824 -0.14828485
-0.05482515 -0.22261935 0.09814354 -0.117211156 0.13702941 -0.20629725 0.14509082 -0.21797332
0.05986503 0.04730421 -0.20554334 0.1578957 -0.1166568 0.011230661 -0.148627 -0.2135545
0.1675564 0.074040815 0.20240648 -0.05226322 -0.062080417 -0.06582896 -0.1441044 -0.10573443
0.14590272 0.06526417 0.16900745 -0.22096418 -0.092188 0.16178063 0.021372378 0.14259675
-0.14851259 0.0661478 -0.22074498 0.12747882 -0.22202818 0.042257775 -0.09089045 0.095428795
0.030278169 0.1256197 -0.13874277 0.025174163 -0.10352656 0.09495269 -0.09073837 -0.16247176

layer1.0.weight f4 [6, 1, 3, 3]
00000000: 1dcf a1be 3955 083d 6b69 243d 66f3 27be
00000010: 4c18 6d3e f404 753e 8917 b53d 934f 3bbd
00000020: 18f3 283e e24d 2abe 56e6 11be 5e74 833d
00000030: a9ec 96be 5ff4 a63d 8252 393e 3a24 9b3e
00000040: 4173 6f3e 0e83 48be 2d26 7e3e 37d0 823e
00000050: 38c6 7f3e 3e6f 58be da52 1dbd 1f36 f8bd
00000060: 2ee9 793e 4dd0 993e 7876 a53e 4191 61bd
00000070: 4ad9 73be 4cb1 46be 795e 1abd d6f2 d23d
00000080: 8e8e 54bd 1a9b b33e 73d2 abbc 456c 753e
00000090: 0ecc 413e c6b9 173d 17c8 73bd a0b9 ac3c
000000a0: e097 6fbe 62c2 ecbd a614 813e f489 a13e
000000b0: 2ecd a6be 61cf 91be 5bcf 873c 241e fabc
000000c0: 2296 f3bd 1ae3 abbc 3f3c b13e 961d 8cbe
000000d0: 3286 d1bd 98bd a13e
-0.31603327 0.0332844 0.040139597 -0.16401443 0.231538 0.2392767 0.088423796 -0.045730185
0.16498983 -0.16631272 -0.14248022 0.0641868 -0.29477432 0.08152079 0.1809788 0.30301076
0.2338381 -0.19581243 0.2481925 0.2554948 0.24977958 -0.21136186 -0.03840909 -0.12119698
0.24405357 0.30041733 0.32316947 -0.055070166 -0.23813358 -0.19403571 -0.037687752 0.103002235
-0.051893763 0.3507927 -0.020974373 0.23967083 0.18925497 0.0370424 -0.059516992 0.021084607
-0.2339778 -0.11560513 0.25211066 0.31550562 -0.32578415 -0.2847853 0.016578367 -0.03053195
-0.1189387 -0.020982314 0.34616277 -0.27366322 -0.10230674 0.3158996

layer1.1.bias f4 [6]
00000000: b082 473e af07 953d fcf4 073e 71a4 da3d
00000010: a8b5 ba3d 2634 943d
0.19483447 0.07276856 0.13277048 0.10675896 0.091166794 0.07236509

layer1.1.running_mean f4 [6]
00000000: 1ac2 023e dcf0 153d cb04 073f c150 983c
00000010: 80b8 143d a1ba b9bd
0.12769356 0.036606655 0.5274169 0.018593194 0.036308765 -0.090688

layer1.1.running_var f4 [6]
00000000: 2ec2 793e 53cb 1c3e acda 4e3f 4046 293e
00000010: 0f3e 0f3e 79ff 963e
0.2439048 0.15311937 0.80802417 0.16530704 0.13988517 0.29491785

layer1.1.weight f4 [6]
00000000: 2936 a13f f9ae a13f dca9 993f a7bb a43f
00000010: 172d a33f a0c1 a23f
1.2594653 1.2631522 1.2004962 1.2869767 1.2748135 1.271534
