weight/model_int8_0.97610.safetensors (safetensors, 491040 bytes, 7 tensors)

fc1.weight f4 [30, 4056]
0.014069694 0.015457209 -0.012745759 0.009601212 0.021568056 0.0061731613 0.029964505 0.012754406
0.02040213 0.032130037 0.023587255 0.003054151 0.013933298 -0.030772984 0.014145076 0.02134823
-0.0026656874 -0.027775196 -0.014266177 -0.044798683 -0.01951663 0.002741056 -0.009963748 -0.0021236548
0.01223411 0.00077340956 0.009544287 -0.006709036 0.0009323573 0.022758743 0.02601649 0.0065741367
0.054460403 0.052699 0.05152569 0.06389794 0.043906767 0.022752602 0.042235926 0.03157294
0.024899976 0.028004706 0.024253149 0.012761405 0.008586659 -0.002118843 -0.016613461 -0.034107737
-0.004623381 0.0039538364 0.01232661 0.012561317 -0.010894215 -0.013432065 -0.023290768 0.013816939
0.043276202 0.019956313 0.045238033 0.06725859 0.03943181 0.048772324 0.04833805 0.04317524
0.03879999 0.01653165 0.010717358 0.027262362 0.03354861 0.016390765 0.014503428 -0.02754274
-0.035153773 -0.029037321 -0.01265614 -0.010255304 -0.021123748 -0.0101860715 -0.014916533 0.007272073
0.017882708 0.020024661 0.02312559 0.035562318 0.045849055 0.030250221 0.04174679 0.050885607
0.0276539 0.039009895 0.0058219973 0.007949858 0.018157791 -0.0027546126 -0.0039017012 0.00178455
-0.021312518 -0.02990626 -0.006164924 -0.043221492 -0.046385232 -0.006487869 -0.030818855 -0.00065694767
0.0019391757 0.02178351 0.018741729 0.033085123 0.034460954 0.026454119 0.035037957 0.04908155
0.034410026 0.0247507 0.049748857 0.028769176 0.039204393 0.02962184 0.015451826 0.024117036
0.0045800847 7.373693e-05 -0.015294727 -0.017943269 -0.014063285 -0.035830993 -0.020928241 -0.03273946
0.0057599526 -0.0063531706 0.035507277 0.047417756 0.014888063 0.03501558 0.037774652 0.03838272
0.01337886 0.032117993 0.045920826 0.048601463 0.047433004 0.04308432 0.02048103 0.036210377
0.013745959 0.018681472 0.004104066 0.00677138 -0.007928124 -0.00358371 0.005697656 -0.034333356
-0.04553016 -0.035406057 -0.0047260006 -0.027871314 0.034307156 0.05909815 0.011908997 0.0048182984
-0.011485627 0.0022629371 0.028376125 0.0135417925 0.027048558 0.030677829 0.01984572 0.04536288
0.032076903 0.04501839 0.013700993 0.03070445 0.036038272 0.022653334 0.008910522 0.014859529
-0.0055901925 -0.016279489 -0.041285306 -0.03594396 -0.02871111 0.00060175936 0.036842275 0.013108275
0.0013152118 -0.008721295 -0.023885189 -0.015279368 0.009389219 0.002290705 0.008268984 0.020552669
0.0053160843 0.01356041 0.017097348 0.040821627 0.01657301 0.018250268 0.0390925 0.04020552
0.019280976 0.015553995 0.022732992 0.010892521 -0.033231337 -0.060156297 -0.039676305 -0.010027662
0.024584647 0.023405604 -0.00076645886 -0.014708716 -0.04773079 -0.014498471 -0.024656514 -0.0053127315
-0.019575708 -0.018827097 -0.04269097 -0.019615231 -0.0010880788 0.0027665389 0.024146322 0.013526429
0.017140307 0.024245631 0.00895291 0.0065168715 0.018133292 0.01991672 -0.07694637 -0.03855508
-0.0053775655 -0.027393164 0.011940845 -0.0011404332 -0.036122203 -0.03077081 -0.06312521 -0.038484577
-0.01774303 -0.018617356 -0.041338295 -0.050065227 -0.04679327 -0.036819607 -0.035256352 -0.04064899
-0.024921227 0.0074026776 -0.016284589 -0.01419354 0.007155648 -0.012755236 0.011627766 -0.031124024
00000000: 9384 663c 3c40 7d3c 97d3 50bc 674e 1d3c
00000010: 7eaf b03c 3b48 ca3b 1f78 f53c dbf7 503c
00000020: 5e22 a73c c99a 033d 0f3a c13c 2728 483b
00000030: 7d48 643c a017 fcbc c0c0 673c 7ce2 ae3c
00000040: d0b2 2ebb cf88 e3bc afbc 69bc d37e 37bd
00000050: 57e1 9fbc 4aa3 333b fd3e 23bc 042d 0bbb
00000060: 9471 483c a3be 4a3a a45f 1c3c 79d7 dbbb
00000070: 7069 743a 8b70 ba3c 8920 d53c db6b d73b
00000080: df11 5f3d e8da 573d 9a0c 533d ecdc 823d
00000090: 95d7 333d aa63 ba3c 94ff 2c3d a152 013d
000000a0: 09fb cb3c 206a e53c 8aae c63c 3615 513c
000000b0: 0faf 0c3c 49dc 0abb f418 88bc 8eb4 0bbd
000000c0: bb7f 97bb 2f8f 813b 8df5 493c fbcd 4d3c
000000d0: a67d 32bc 2a12 5cbc 48cc bebc 7160 623c
000000e0: 6342 313d 6c7b a33c 844b 393d dfbe 893d
000000f0: 4083 213d 7dc5 473d 1efe 453d 85d8 303d
00000100: bdec 1e3d 626d 873c dc97 2f3c 5155 df3c
00000110: 446a 093d ed45 863c c99f 6d3c 50a1 e1bc
00000120: 67fd 0fbd addf edbc b35b 4fbc dd05 28bc
00000130: b60b adbc 7be3 26bc 7964 74bc 924a ee3b
00000140: c27e 923c c20a a43c e171 bd3c cba9 113d
00000150: 38cc 3b3d 50cf f73c affe 2a3d 6d6d 503d
00000160: 6f8a e23c d7c8 1f3d 74c6 be3b 1f40 023c
00000170: a6bf 943c bb86 34bb afb3 7fbb 90e7 e93a
00000180: 9797 aebc f9fd f4bc 2103 cabb 0509 31bd
00000190: 71fe 3dbd 3198 d4bb d377 fcbc 0337 2cba
000001a0: f02b fe3a 5573 b23c 4188 993c 4484 073d
000001b0: ee26 0d3d 4fb6 d83c f683 0f3d bc09 493d
000001c0: 87f1 0c3d fbc1 ca3c 75c5 4b3d 56ad eb3c
000001d0: c994 203d 80a9 f23c a829 7d3c 1791 c53c
000001e0: 8914 963b 36a3 9a38 bc96 7abc c3fd 92bc
000001f0: b169 66bc 85c3 12bd b471 abbc d019 06bd
00000200: fcbd bc3b 422e d0bb 1470 113d 1f39 423d
00000210: 10ed 733c 7f6c 0f3d 98b9 1a3d 3337 1d3d
00000220: 0233 5b3c 288e 033d 7a17 3c3d 5412 473d
00000230: 1c49 423d 2f79 303d d5c7 a73c 5551 143d
00000240: bb36 613c e309 993c 677b 863b 74e2 dd3b
00000250: f6e4 01bc addc 6abb 67b3 ba3b 22a1 0cbd
00000260: d57d 3abd f105 11bd 91dc 9abb 6252 e4bc
00000270: a985 0c3d e710 723d f41d 433c d1e2 9d3b
00000280: 362e 3cbc c94d 143b 0c75 e83c 65de 5d3c
00000290: f094 dd3c 1250 fb3c 7e93 a23c 6dce 393d
000002a0: 1263 033d 3465 383d 217a 603c e687 fb3c
000002b0: de9c 133d 7c93 b93c 70fd 113c 6275 733c
000002c0: ef2d b7bb 905c 85bc c81a 29bd f939 13bd
000002d0: 9033 ebbc 63bf 1d3a ede7 163d 17c4 563c
000002e0: 2f63 ac3a c3e3 0ebc dfaa c3bc 5056 7abc
000002f0: 3dd5 193c a71f 163b a27a 073c 125e a83c
00000300: 8c32 ae3b 7b2c 5e3c bd0f 8c3c 9434 273d
00000310: 1fc4 873c 9681 953c 751f 203d 8bae 243d
00000320: 23f3 9d3c 2fd6 7e3c 8a3a ba3c 8b76 323c
00000330: 951d 08bd 7366 76bd 9f83 22bd 104b 24bc
00000340: be65 c93c 1cbd bf3c 2fec 48ba d4fc 70bc
00000350: 5c81 43bd ff8a 6dbc 75fc c9bc 6c16 aebb
00000360: 3c5d a0bc 493b 9abc badc 2ebd 1fb0 a0bc
00000370: de9d 8eba d24e 353b 82ce c53c f59d 5d3c
00000380: d469 8c3c c69e c63c 3aaf 123c 7b8b d53b
00000390: 458c 943c 6428 a33c 0f96 9dbd eeeb 1dbd
000003a0: 4a36 b0bb a167 e0bc 89a3 433c 977a 95ba
000003b0: e0f4 13bd 1113 fcbc ca47 81bd 01a2 1dbd
000003c0: d559 91bc 6d83 98bc 5852 29bd 3211 4dbd
000003d0: 4daa 3fbd 28d0 16bd f768 10bd 8e7f 26bd
000003e0: 9a27 ccbc 2992 f23b 4267 85bc 068c 68bc
000003f0: ed79 ea3b 56fb 50bc 6382 3e3c cff7 febc

fc2.weight f4 [10, 30]
-0.07934 0.1911457 -0.15936913 -0.16201982 -0.09406591 -0.11536217 -0.0011374948 0.18470827
-0.17304964 0.15522404 0.199661 -0.07707364 -0.013846287 0.15486878 -0.23290977 0.17996328
-0.117558256 -0.109046124 -0.23279764 -0.11056225 -0.13183771 -0.18518001 -0.09176468 -0.03147576
-0.14558278 -0.0012080782 0.042516172 -0.21038146 -0.13930914 -0.052328944 -0.19857433 -0.07452235
0.06911977 -0.10758519 0.1794856 -0.05640803 0.06615766 -0.058097687 -0.20268136 0.20118798
-0.036861084 0.17542922 -0.20033544 -0.2611072 -0.1260148 -0.018514106 -0.24987711 -0.18166916
0.21672289 0.053282343 0.16716531 0.15377973 0.08235772 0.048964955 0.045234535 0.1635769
-0.017406214 0.063978 0.16445526 -0.05920955 0.08889657 0.14174956 -0.16394822 -0.2608225
0.20159633 0.09482027 0.0425437 -0.08203551 -0.133378 -0.004866554 0.050329212 0.0021449022
0.07540438 -0.10629667 -0.14619932 -0.23901606 0.087744445 -0.12368457 -0.17193222 -0.0068490063
-0.047224466 0.095480785 -0.1470862 -0.07206319 -0.15552478 0.006599287 -0.142215 0.08044945
-0.13341302 -0.11775524 0.07317938 -0.25946838 -0.07261594 0.0875203 -0.23037672 -0.16970539
-0.0056201206 0.1361643 0.021077853 -0.29890406 0.0756518 -0.0036683583 0.16055773 0.019345403
-0.048070043 -0.049684845 -0.007882771 0.15494935 0.13844007 -0.0027155308 -0.15629852 0.03565909
0.08373462 0.17145322 0.1248923 -0.053603157 -0.19174482 0.053079482 -0.18297425 -0.074840784
-0.32615662 0.0279224 -0.01807006 0.16534387 0.07915226 0.033454336 -0.045413285 0.09385266
0.051451877 0.095225886 -0.28899667 -0.15304612 0.11582226 -0.27734214 0.12242468 0.01826707
-0.13521332 -0.051348764 -0.022303792 -0.21069692 -0.11005366 0.103666194 -0.04175036 -0.19005091
-0.22486013 -0.021330537 -0.20701133 -0.19474547 0.013563743 -0.19045945 -0.061588332 0.16242616
-0.114640184 0.119785786 0.21669002 0.10548077 -0.25338274 -0.23581827 -0.061083745 -0.23090062
-0.1889273 -0.17304197 -0.20331596 0.21291463 0.013882786 0.15130202 -0.098695576 0.06482845
-0.16808632 -0.20997801 0.120571546 -0.1200963 -0.14814892 0.09347031 0.092755154 0.20681901
0.21821685 -0.1343742 0.10814039 0.10049954 -0.24184273 -0.05293072 -0.20217638 -0.122081
-0.07547167 0.025778143 -0.11116049 0.02218978 0.14199069 -0.056108437 0.05536503 -0.14366397
0.053606145 -0.06049777 -0.17869844 0.13021247 -0.27082804 0.06827611 0.090860374 0.09236536
-0.096273586 -0.13341914 0.079916194 -0.17902659 -0.22897081 -0.18800962 0.21531068 -0.15532881
-0.06566808 -0.2646162 0.10795391 -0.1091552 0.15184239 -0.19860837 0.16785339 -0.20966117
0.078412466 0.05574017 -0.19359536 0.17180045 -0.117356315 0.018891254 -0.13879324 -0.21408422
0.18120028 0.08177277 0.19852662 -0.043156702 -0.05458409 -0.05783404 -0.16616984 -0.12093708
0.17119911 0.0838998 0.19550586 -0.22980708 -0.07499248 0.18298133 0.038370933 0.15632997
-0.14693643 0.06662957 -0.27386132 0.13198875 -0.2763642 0.040795855 -0.09303679 0.09778568
0.03374815 0.1280759 -0.14955063 0.040341467 -0.10625892 0.09586978 -0.08811239 -0.16421805
00000000: 037d a2bd b3bb 433e a931 23be 86e8 25be
00000010: a1a5 c0bd 0043 ecbd fe17 95ba 2a24 3d3e
00000020: ed33 31be 0df3 1e3e ef73 4c3e c9d8 9dbd
00000030: 89db 62bc ec95 1e3e e67f 6ebe 4b48 383e
00000040: 62c2 f0bd 9353 dfbd 8162 6ebe 766e e2bd
00000050: 7700 07be d49f 3dbe 1fef bbbd baec 00bd
00000060: a713 15be 6158 9eba 7025 2e3d 3d6e 57be
00000070: 0ea7 0ebe e056 56bd 1257 4bbe 2d9f 98bd
00000080: aa8e 8d3d a055 dcbd 13cb 373e 1b0c 67bd
00000090: ab7d 873d d7f7 6dbd b48b 4fbe 3904 4e3e
000000a0: a6fb 16bd b8a3 333e bc24 4dbe d8af 85be
000000b0: 060a 01be e5aa 97bc c9df 7fbe 7b07 3abe
000000c0: 9bec 5d3e 963e 5a3d 622d 2b3e 6f78 1d3e
000000d0: 2aab a83d 7a8f 483d d947 393d b480 273e
000000e0: 7a97 8ebc e606 833d f666 283e b785 72bd
000000f0: 680f b63d cc26 113e 0be2 27be 878a 85be
00000100: 456f 4e3e 2131 c23d 4e42 2e3d 3c02 a8bd
00000110: 3e94 08be 9d77 9fbb 0126 4e3d 7d91 0c3b
00000120: 9d6d 9a3d 12b2 d9bd 46b5 15be a0c0 74be
00000130: 5cb3 b33d 564e fdbd 000f 30be a16d e0bb
00000140: 716e 41bd 6e8b c33d c49d 16be de95 93bd
00000150: e341 1fbe d53e d83b cfa0 11be aec2 a43d
00000160: 6c9d 08be a929 f1bd 12df 953d 0ad9 84be
00000170: aab7 94bd d83d b33d e0e7 6bbe 40c7 2dbe
00000180: fd28 b8bb a76e 0b3e 76ab ac3c f409 99be
00000190: 55ef 9a3d d768 70bb 3f69 243e 407a 9e3c
000001a0: 18e5 44bd 5682 4bbd bd26 01bc 0bab 1e3e
000001b0: 3cc3 0d3e 0cf7 31bb b80c 20be 440f 123d
000001c0: 0e7d ab3d 6f91 2f3e 89c7 ff3d fc8e 5bbd
000001d0: c158 44be df69 593d 9a5d 3bbe 2046 99bd
000001e0: 00fe a6be 84bd e43c aa07 94bc e74f 293e
000001f0: 951a a23d 6a07 093d 4803 3abd d335 c03d
00000200: 34bf 523d ca05 c33d 5ff7 93be 1fb8 1cbe
00000210: 3934 ed3d caff 8dbe cab9 fa3d d3a4 953c
00000220: 5c75 0abe 1553 52bd 71b6 b6bc efc0 57be
00000230: d063 e1bd f14e d43d 6d02 2bbd b59c 42be
00000240: bc41 66be 61bd aebc c7fa 53be 5b6b 47be
00000250: 763a 5e3c cd07 43be 0c44 7cbd 0b53 263e
00000260: 79c8 eabd 4052 f53d fde3 5d3e 4d06 d83d
00000270: 62bb 81be 587a 71be f332 7abd 3671 6cbe
00000280: 2876 41be ea31 31be 0f32 50be 4b06 5a3e
00000290: a074 633c ebee 1a3e e820 cabd c7c4 843d
000002a0: d21e 2cbe 7a04 57be 37ee f63d 0df5 f5bd
000002b0: 5ab4 17be 5d6d bf3d 6af6 bd3d 5dc8 533e
000002c0: 3d74 5f3e 6499 09be b578 dd3d b4d2 cd3d
000002d0: 9fa5 77be e2cd 58bd 5307 4fbe 9a05 fabd
000002e0: e490 9abd af2c d33c 1ca8 e3bd 57c7 b53c
000002f0: 0266 113e f6d1 65bd 71c6 623d a61c 13be
00000300: 1e92 5b3d 82cc 77bd b9fc 36be 6b56 053e
00000310: f9a9 8abe 58d4 8b3d 0115 ba3d 0d2a bd3d
00000320: 162b c5bd 079f 08be 1aab a33d bf52 37be
00000330: 5377 6abe 9885 40be 677a 5c3e 840e 1fbe
00000340: fc7c 86bd c67b 87be f116 dd3d c38c dfbd
00000350: 927c 1b3e fe5f 4bbe c2e1 2b3e 6bb1 56be
00000360: b796 a03d ce4f 643d dd3d 46be 75ec 2f3e
00000370: 8258 f0bd d5c1 9a3c d11f 0ebe e538 5bbe
00000380: 918c 393e 7b78 a73d 904a 4b3e 15c5 30bd
00000390: 9193 5fbd 63e3 6cbd 6d28 2abe dcad f7bd
000003a0: d24e 2f3e a9d3 ab3d b032 483e 8c52 6bbe
000003b0: a895 99bd 755f 3b3e d72a 1d3d f714 203e
000003c0: 8176 16be 1675 883d 8d37 8cbe 0f28 073e
000003d0: 9c7f 8dbe 8e19 273d 138a bebd dc43 c83d
000003e0: 803b 0a3d 5426 033e cd23 19be 183d 253d
000003f0: 479e d9bd 6057 c43d 4574 b4bd c728 28be

layer1.0.weight f4 [6, 1, 3, 3]
-0.3139769 0.03553767 0.037804384 -0.1576798 0.2332301 0.23835778 0.08894563 -0.04729497
0.16563007 -0.15204252 -0.13391761 0.06681916 -0.28276584 0.08300245 0.17699851 0.28723443
0.22285928 -0.20705906 0.2446435 0.2551642 0.25821364 -0.21284728 -0.052688748 -0.1293155
0.2467593 0.29251248 0.32298464 -0.05194806 -0.23495498 -0.18228063 -0.048008945 0.0983389
-0.04886731 0.34892923 -0.037363153 0.23342425 0.18024094 0.036485985 -0.04876135 0.009857125
-0.23272544 -0.102238484 0.2460906 0.30707252 -0.32314396 -0.2887783 0.0037890298 -0.05493893
-0.12292912 -0.030007064 0.34401235 -0.27303433 -0.11063364 0.29706094
00000000: 95c1 a0be f38f 113d c5d8 1a3d d076 21be
00000010: dfd3 6e3e 1014 743e 2029 b63d 5fb8 41bd
00000020: ee9a 293e 09b1 1bbe b321 09be 7cd8 883d
00000030: afc6 90be 30fd a93d 193f 353e 6410 933e
00000040: 3935 643e 4a07 54be d383 7a3e e2a4 823e
00000050: 9434 843e a3f4 59be 28d0 57bd 486b 04be
00000060: 78ae 7c3e 32c4 953e 3e5e a53e 7dc7 54bd
00000070: 0a98 70be c6a7 3abe 07a5 44bd e865 c93d
00000080: 1729 48bd daa6 b23e 1b0a 19bd c406 6f3e
00000090: 1591 383e 5472 153d fbb9 47bd c77f 213c
000000a0: 944f 6ebe 6962 d1bd 2dff 7b3e 9c38 9d3e
000000b0: 2073 a5be c0da 93be 5f51 783b a507 61bd
000000c0: 43c2 fbbd 60d1 f5bc 6322 b03e 28cb 8bbe
000000d0: e493 e2bd 5f18 983e

layer1.1.bias f4 [6]
0.16902502 0.08257254 0.122540615 0.10028645 0.10083677 0.0778986
00000000: e514 2d3e cb1b a93d 93f6 fa3d fb62 cd3d
00000010: 8283 ce3d 4d89 9f3d

layer1.1.running_mean f4 [6]
0.12118726 0.02446473 0.5351818 0.028008478 0.030892203 -0.10689966
00000000: 0731 f83d 426a c83c ad01 093f 0972 e53c
00000010: a511 fd3c 35ee dabd

layer1.1.running_var f4 [6]
0.24514796 0.1355819 0.8294396 0.15215974 0.13696435 0.3257882
00000000: 1108 7b3e fbd5 0a3e 2756 543f c3cf 1b3e
00000010: 6240 0c3e b6cd a63e

layer1.1.weight f4 [6]
1.2508339 1.259944 1.1912858 1.2876612 1.2816646 1.2714578
00000000: 531b a03f d845 a13f 0e7c 983f 15d2 a43f
00000010: 960d a43f 21bf a23f
